Session8/saved_models/s8_saved_model_final_submission.pth (torch, 822165 bytes, 54 tensors)

inpblock.0.weight f4 [32, 3, 3, 3]
000000 b9 4c 5d bf ae 7d 00 bf f9 26 52 bf 2d b3 4d be
       -0.86445194 -0.5019177 -0.8209072 -0.20087881
000010 c3 c2 36 bf da 00 ac be a2 16 e2 bd 9e d5 d8 be
       -0.7139093 -0.335944 -0.11039473 -0.42350477
000020 39 63 c3 be 75 2f bb 3e a6 cc a7 3f 18 02 91 3f
       -0.38161638 0.36559644 1.3109329 1.1328764
000030 b7 d4 98 3f c5 19 b2 3f ac 1b 9a 3f 93 b7 c2 3e
       1.1939915 1.3914114 1.2039695 0.3803068
000040 52 8a 43 3f f7 e7 62 3f 25 8d 17 bf ee 13 1f bf
       0.76382935 0.886352 -0.59199744 -0.62139785
000050 44 2b bd be ae 83 4b be 81 89 96 bf 7d 59 0f bf
       -0.36947072 -0.1987445 -1.1760713 -0.55995923
000060 56 eb 7c bd 8a 9e 59 bf 45 b5 0b bf a0 dd 05 bd
       -0.06174787 -0.85007536 -0.5457347 -0.03268206
000070 33 03 54 3d 8e 30 2d 3e 1f 93 a5 3e 9a df 15 be
       0.051760864 0.16913053 0.32338807 -0.14636078
000080 24 80 b8 3e 06 a2 5a be 4a 55 dd be 2c 77 6b be
       0.36035264 -0.2135087 -0.43229133 -0.22994679
000090 9c e2 45 bc b2 89 98 3d d5 54 a9 3e c9 68 ca 3e
       -0.012077954 0.07448138 0.33072534 0.3953307
0000a0 7e 24 79 3e bf 12 98 3e 98 9e d8 bd 2a 56 16 bf
       0.24330327 0.29701802 -0.10577124 -0.58725226
0000b0 40 1e 8e be 30 e4 45 3e 6a e6 4d 3e a0 7c 3c 3e
       -0.27757454 0.19325328 0.20107427 0.18406916
0000c0 64 1e d5 3e 70 9f ce 3e ae d0 06 3f 7e 02 b6 bc
       0.4162475 0.40356016 0.5266217 -0.022217985
0000d0 92 23 38 bf 98 08 cf be a0 8a 53 bf 2a 7e 95 bf
       -0.71929276 -0.40436244 -0.826334 -1.1679127
0000e0 a6 4c 5a bf b0 61 cf bd 17 89 05 be ad 53 39 be
       -0.85273206 -0.10126054 -0.13040577 -0.18098326
0000f0 c0 82 07 3f 8a 51 9c 3f 2e 0c 75 3f 72 3f 20 bf
       0.52933884 1.2212384 0.9572171 -0.6259681
000100 be 8a b2 be 8d b8 b8 be 5b a7 43 be d9 a8 02 be
       -0.34871477 -0.360783 -0.1910681 -0.12759723
000110 f4 6b 83 3e 53 33 05 bc f9 3b 85 3f 74 be 8f 3f
       0.256683 -0.008129912 1.0408927 1.1229997
000120 34 c2 b9 be ff 36 f4 be 78 e5 e1 be e0 c2 80 be
       -0.36280978 -0.4769821 -0.44120383 -0.25148678
000130 bd d3 7c be 3d 48 0e be b3 3a 6d bd f2 ff 37 3f
       -0.24690147 -0.13894744 -0.057917308 0.71874917
000140 29 62 3b 3f 9d c1 2d bf 45 5f 14 bf 42 3c 92 bf
       0.73196656 -0.67873555 -0.5795787 -1.1424639
000150 76 25 d6 be b2 8f bf 3f 48 0f 81 3f 23 d7 a5 3f
       -0.41825455 1.4965727 1.0082788 1.295628
000160 23 e2 a1 bf 42 a4 21 3f 73 62 2c be da 85 6c be
       -1.2647136 0.6314126 -0.1683443 -0.23097935
000170 e9 70 ad bd eb 2a 0b bf 9f 31 ac 3f 4a 66 63 3f
       -0.084688015 -0.5436236 1.3452643 0.88827956
000180 e5 42 68 3f 31 b2 f0 bf ee d2 9f be 30 33 64 3d
       0.9072707 -1.880438 -0.31215614 0.05571288
000190 16 03 09 3e 8a e1 0c 3d 0b 0f 8c be a0 06 89 3f
       0.13380083 0.03439478 -0.27355227 1.0705147
0001a0 89 c8 0f 3f 86 d0 34 3f 48 d5 ff bf 58 13 10 bf
       0.5616537 0.7063068 -1.9986963 -0.56279516
0001b0 c1 98 86 3e d7 96 9b 3e 79 e1 40 3e a1 d9 a1 3e
       0.26288417 0.3038852 0.18836011 0.3161135
0001c0 73 09 3f 3e bb d9 56 3e fb 13 ca 3d 5f e7 eb bc
       0.18655948 0.20981495 0.09867092 -0.02879685
0001d0 03 03 97 3d 76 b0 d6 3d 62 cb d6 3d 6b 05 8b 3e
       0.07373621 0.10482876 0.10488011 0.2715257
0001e0 08 bd 24 3e d7 c5 53 3e a7 cb 6d 3d eb 87 34 3e
       0.16087735 0.20680939 0.058055546 0.17629974
0001f0 72 4f 7d 3e d9 5d 2f 3e fb ba 4d bd 57 34 1a 3e
       0.24737337 0.17125644 -0.050227147 0.15059029
000200 cf 73 2b 3e 27 16 fb 3c d4 ec fe 3d 33 8a 20 3e
       0.16743396 0.030650211 0.12447515 0.15677719
000210 93 ca d8 3d 91 ea a8 3e 60 90 0d 3e 0a 6a 06 3f
       0.10585513 0.3299146 0.13824606 0.5250555
000220 97 e2 46 be 1f 1e 8c bd 49 e2 b4 be 0c 54 60 3f
       -0.19422375 -0.06841683 -0.35328892 0.87628245
000230 a9 23 b0 3f 1a 03 01 3e 58 8b 65 bf b7 56 50 bf
       1.3760883 0.1259884 -0.89665747 -0.81382316
000240 37 77 f3 3e e6 a6 0a be a8 ee 83 be 19 14 cc be
       0.4755189 -0.13540229 -0.25768018 -0.39859083
000250 5f a7 35 3f de 97 aa 3f 4d a0 46 3f a5 43 5c bf
       0.70958513 1.3327596 0.7758835 -0.8604072
000260 e8 7f 69 bf 37 44 54 3d 0d 7f 11 bf 5f e3 f6 be
       -0.91210794 0.051822867 -0.5683449 -0.48220345
000270 aa dd 1a bf ff b4 b8 3e 77 73 34 3f 8d f6 19 3f
       -0.6049448 0.3607559 0.70488685 0.6014183
000280 f7 aa 76 bf 5b c8 7e bf 40 63 d0 ba fe 3c a2 be
       -0.9635462 -0.9952447 -0.001589872 -0.31687158
000290 d5 94 df be bf b6 b0 3d 5b 71 6b be 4e 69 40 bf
       -0.43668237 0.08628606 -0.2299246 -0.7516068
0002a0 70 64 b8 3c 71 07 8b be 25 b8 42 bd b3 f9 ac 3d
       0.02250883 -0.27154115 -0.047538895 0.08446064
0002b0 4e 19 8e 3e eb 08 7c be 63 c5 ce 3e d6 56 d8 bd
       0.2775368 -0.24612777 0.4038497 -0.10563438
0002c0 53 21 58 bc 06 04 2e bd a8 1d 4c 3e e3 51 0f 3f
       -0.013191539 -0.042484306 0.19933188 0.55984324
0002d0 8b 8c 38 be 55 ce d2 bd ed d8 d2 be 6a c7 c8 bd
       -0.18022363 -0.10293261 -0.41181126 -0.0980366
0002e0 8f 85 5f bd 45 c4 ce be a7 ce 2f 3e fb 60 76 be
       -0.05457073 -0.40384117 0.17168675 -0.24060433
0002f0 59 3e 92 3d a0 d5 d4 be 2a 25 33 be f0 ec 4b 3e
       0.07140798 -0.41569233 -0.17494646 0.19914603
000300 11 85 88 3e 60 85 b1 3f 1c f6 39 bf 9d 00 bb be
       0.26664022 1.3868828 -0.7264116 -0.36523905
000310 12 41 01 3c 7b 52 d0 be 9e cd 18 be ed aa 82 3c
       0.007889049 -0.40687928 -0.14922187 0.015950644
000320 27 49 de 3d 34 8e 2b 3f c8 c2 a6 3f ac c4 8e bf
       0.108537965 0.6701386 1.3028193 -1.115377
000330 31 7b 64 be 70 4e 73 be 99 a0 4b be 4b f8 2a bf
       -0.22312619 -0.2376039 -0.19885482 -0.66785115
000340 7a 40 ce be 8c c6 1e 3e aa 3a 09 3f cc 2b b8 3f
       -0.40283567 0.15505427 0.5360514 1.4388366
000350 40 f4 40 bf 53 6d ba bd 7c d9 92 3d ba d9 9c be
       -0.75372696 -0.09102883 0.07170388 -0.30634862
000360 17 41 36 3f f6 85 8d 3f 14 d0 c3 3e 74 77 a1 3e
       0.7119307 1.1056507 0.3824469 0.31536448
000370 c4 46 3f 3e b3 47 b1 3d f2 29 09 bf b7 b2 ad bf
       0.18679339 0.08656254 -0.5357963 -1.3570164
000380 cc 53 89 bf 8a ca c3 3e 8e b6 16 3f 84 65 d5 3e
       -1.0728698 0.38240463 0.58872306 0.41679013
000390 52 95 a7 3e 3f c6 4b 3d 7e 3b 94 3e 31 77 bb be
       0.3273111 0.04974961 0.2895164 -0.36614373
0003a0 cc e5 95 bf 34 c1 76 bf 42 6c e5 bc 4f 1b 3a 3f
       -1.1710753 -0.96388555 -0.028005723 0.7269792
0003b0 b3 f5 43 3e 0a 59 0f 3e 64 ba 71 3e 9e ba 74 3e
       0.19136696 0.1399881 0.23606259 0.23899314
0003c0 fb f1 1b be a5 f1 03 bf e5 60 1c bf 46 2b b0 be
       -0.15229027 -0.51540595 -0.6108535 -0.34408015
0003d0 05 07 13 be 23 42 a8 3d 98 c7 21 be ad 97 56 3e
       -0.14358146 0.082157396 -0.15798795 0.20956297
0003e0 20 c5 fd be 3c e6 09 bf 8e 47 67 be d7 fd b9 be
       -0.49564457 -0.53866935 -0.2258589 -0.36326477
0003f0 05 cf db be f8 0c f4 be 08 0b c3 be a5 7b 14 3e
       -0.4293138 -0.47666144 -0.38094354 0.14500292

inpblock.2.weight f4 [32]
000000 4c 2f b9 3f 55 b6 78 3f 8c e6 d8 3f 55 88 f5 3f
       1.4467559 0.97153217 1.6945357 1.918223
000010 8f c7 18 3f 7e ef c4 3f 7a 7f 83 3f d3 af c0 3f
       0.596795 1.5385587 1.0273278 1.5053657
000020 75 95 be 3f 10 b8 92 3f 7d 12 82 3f e4 6c 8f 3f
       1.4889361 1.1462421 1.0161892 1.1205106
000030 25 57 ad 3f 74 7f 5d 3f 54 b3 8e 3f d6 7c a9 3f
       1.3542219 0.86522603 1.1148477 1.3241222
000040 ce 0c d1 3f 1b d7 81 3f c4 d2 b5 3f fc 78 8c 3f
       1.6332033 1.014377 1.4204946 1.0974422
000050 90 7c 83 3f f9 67 97 3f c7 af 8c 3f 23 15 bd 3f
       1.0272388 1.1828605 1.0991143 1.4772075
000060 ea c5 ad 3f 47 93 b9 3f e9 a7 b8 3f 12 45 c1 3f
       1.3576024 1.449807 1.4426242 1.5099204
000070 ca 31 b2 3f 80 a5 b5 3f 16 bd 8e 3f 7e f7 73 3f
       1.3921444 1.4191132 1.1151454 0.9529952

inpblock.2.bias f4 [32]
000000 3e 97 8a 3e ac d4 ae 3e 84 83 5f 3e f8 df 94 3e
       0.27068514 0.3414663 0.21827513 0.29077125
000010 61 d3 ab 3c c5 4b 36 bd 24 ec 15 bf e5 e7 34 3e
       0.020974817 -0.044505853 -0.58563447 0.17666586
000020 42 f5 d3 bd 50 18 8b 3d 34 5e c3 3e f3 c8 2b 3e
       -0.103495136 0.067917466 0.3815781 0.16775875
000030 95 b0 af be 69 ca 13 3f 7a d7 0b be f6 b0 70 3e
       -0.3431441 0.5773073 -0.13656417 0.23505005
000040 7b 1f 3f 3e 82 91 e3 3e 2f d7 cf 3d 8c 45 14 be
       0.18664353 0.4444695 0.10148465 -0.14479655
000050 ba 62 ad be 80 c9 82 3e 9d 26 03 be b4 5d 14 3e
       -0.33864385 0.25544357 -0.12807699 0.1448887
000060 78 05 02 bd 17 fc f9 3d 6b ab f8 3d 51 a6 ae 3e
       -0.031743497 0.122062854 0.121420704 0.34111264
000070 a8 86 dd 3d 89 ca 0f 3e 5c fc 9c 3e 44 1d 38 3e
       0.10816699 0.14042105 0.30661285 0.17979914

inpblock.2.running_mean f4 [32]
000000 20 f0 6f 3f d7 22 49 3f 9c 90 f2 3f b7 c4 5b 3f
       0.93725777 0.78568786 1.8950381 0.8584704
000010 de 7a bd 3f 0c ad 85 3f 3b 2f b9 3f 83 ed 36 3f
       1.4803121 1.0443435 1.4467539 0.71456164
000020 b5 c2 e4 3f 0b a8 82 3f 97 24 5d 3f fb 73 7a 3f
       1.787192 1.0207533 0.86383957 0.9783322
000030 76 af be 3e e2 f0 9f 3f 69 73 fc 3f 89 32 53 3f
       0.3724324 1.2495387 1.972272 0.82498986
000040 7f 53 8d 3f 3a 3e 71 3f ff c8 41 3f bb 8e 02 40
       1.1041106 0.94235575 0.7569732 2.0399616
000050 36 13 65 3f 3b 1e 02 3f 79 07 46 3f fc ca 38 3f
       0.8948244 0.5082738 0.7735515 0.7218473
000060 e4 26 6b 3f c7 a9 aa 3f 14 e3 df 3f 1f e0 b1 3f
       0.9185622 1.3333062 1.7491174 1.3896521
000070 c0 12 ab 3f a7 17 6a 3f 5b 7e c1 3f 59 12 5d 3f
       1.3365097 0.9144234 1.5116686 0.8635612

inpblock.2.running_var f4 [32]
000000 bc e7 5d 40 67 27 10 40 4d 0c 68 41 36 9e 36 40
       3.467269 2.252405 14.503003 2.8534064
000010 96 85 d0 40 05 7f 41 40 89 d0 47 40 88 47 19 40
       6.516307 3.0233777 3.122103 2.394991
000020 38 2e 3a 41 1c e8 5c 40 a0 e3 1e 40 fb 1e 41 40
       11.636284 3.4516668 2.4826431 3.017516
000030 2e b5 16 3f 60 36 8c 40 c7 d6 a6 40 7f ac 12 40
       0.5887021 4.3816376 5.213718 2.2917783
000040 0f 00 8b 40 fb d6 3b 40 5f 79 f6 3f 00 e6 03 41
       4.343757 2.9349964 1.925579 8.243652
000050 3e 2a 34 40 0b 9b 71 3f 45 a8 01 40 b2 6b 08 40
       2.8150783 0.943772 2.0258954 2.1315732
000060 25 a1 d4 3f 34 43 0d 41 ac 17 28 41 ae c8 17 41
       1.6611677 8.828907 10.505779 9.486494
000070 53 3a 0c 41 9f 58 0f 40 f2 ac 5c 40 49 5e 1d 40
       8.764239 2.239784 3.4480557 2.4588797

convblock1.0.weight f4 [32, 32, 3, 3]
000000 af 3d 45 be b4 a9 8d 3c fc 5e 80 3d 2c 3a 2f bd
       -0.19261812 0.017292835 0.06268117 -0.042780086
000010 53 12 e2 3b 28 0b a6 3d 6d 07 c2 bd bb b9 8a 3d
       0.006899157 0.08107597 -0.094740726 0.067737065
000020 79 12 cc 3c 92 3e 2f be 23 4c 11 be f8 48 ae bd
       0.024911152 -0.17113712 -0.141892 -0.085100114
000030 c0 b6 27 be c1 9a dc bd 43 0a 06 be 51 40 2d be
       -0.16378307 -0.107717045 -0.13089852 -0.16919066
000040 6a 82 af bd e0 34 b4 bd 60 7d 16 be 25 96 4a be
       -0.085697964 -0.087991476 -0.14696264 -0.19783838
000050 04 40 80 be ff 2c e0 3c 92 5d 2f 3e 0d 1f 99 3d
       -0.2504884 0.027365206 0.17125538 0.074766256
000060 62 d8 bf 3c ea 3d 3c 3e 14 d1 58 3e 05 e6 41 bd
       0.023418609 0.18382993 0.21173507 -0.047338504
000070 be 7c 33 bd 64 25 a4 bd 0b 6d 84 bc 22 d6 0b be
       -0.043820135 -0.08014944 -0.016165277 -0.13655904
000080 fd 67 57 bd d2 f5 1b bd 9f c5 66 3e bd 21 23 3e
       -0.052589405 -0.03807623 0.22536324 0.15930839
000090 cc f7 cf 3c 4b c2 39 3d 74 3b 9d bd 97 80 21 3c
       0.025386713 0.045351308 -0.076773554 0.009857318
0000a0 da dd 46 3d 6c 44 a8 3a e3 89 4b 3b 9a 5a cc 3c
       0.048551418 0.0012837774 0.0031057529 0.024945546
0000b0 9c 2b fa 3d a1 43 36 3c 4b 38 a7 3d 9f 37 3e 3c
       0.12215349 0.011124522 0.08165034 0.011609941
0000c0 ce 82 03 be a7 5c 4f be 20 b1 25 be ba 3e 0f be
       -0.12842867 -0.20250188 -0.16180849 -0.13988772
0000d0 b5 7f 9e bd a4 f0 cc bd 13 fc a7 bd c2 92 5b bc
       -0.07739202 -0.10006836 -0.08202376 -0.013401689
0000e0 d2 6c f5 bc 62 87 6b bc 5b 54 97 3d 94 92 02 3d
       -0.029959116 -0.0143755395 0.073891364 0.03187807
0000f0 e2 34 88 3d 9f 19 00 3d e4 85 34 bd bf bb ac 3d
       0.066507116 0.031274434 -0.044073 0.08434247
000100 e7 d9 04 3e b3 0b 1b bd 74 2c 06 3d c2 76 c7 3d
       0.12973748 -0.037852954 0.032757238 0.09739448
000110 27 14 11 be 1e 4e 93 bd 90 fc 72 3d b1 57 92 3d
       -0.14167844 -0.07192634 0.059322894 0.07145632
000120 2f 62 8e bd 54 de cc bc 87 a0 98 3b 22 69 43 be
       -0.06952321 -0.025008358 0.004657808 -0.19083074
000130 23 c0 64 be f5 71 5c be 89 73 7c be 10 54 84 be
       -0.2233892 -0.21527846 -0.24653448 -0.25845385
000140 70 d0 ce bd b2 f0 34 3d 8b 36 d4 3b ad 14 06 be
       -0.1009835 0.044174857 0.0064762286 -0.13093825
000150 4d 7a 46 bd 05 68 80 3d 20 77 f3 3d 39 fa f0 bc
       -0.04845648 0.0626984 0.11887956 -0.02941619
000160 6a f2 ab 3d 57 45 42 3e 6b f9 36 be e1 79 be bd
       0.08395846 0.18971764 -0.17868583 -0.0930059
000170 0a 3f 26 3c de 9c 01 be e1 a4 be bd 61 35 19 bd
       0.010146866 -0.12657496 -0.09308792 -0.03740442
000180 46 49 2f bd c0 30 8a bd 7d ee 35 3c 2f 5c 19 be
       -0.04279449 -0.067475796 0.011104223 -0.14976572
000190 45 2b 49 3d be 48 2f 3d a7 77 99 bd d5 fa be bd
       0.04911353 0.04279398 -0.07493525 -0.09325186
0001a0 44 71 f3 bd ea b0 a7 bd 56 52 20 bd 02 77 ed bd
       -0.11886838 -0.081880406 -0.03914102 -0.115949646
0001b0 7e 83 13 3e f0 4e 03 3e 6b 7b 8d bc 2c f5 47 3e
       0.14405629 0.12823081 -0.017270764 0.1952712
0001c0 e8 b0 79 3e 9f 65 cd 3d e0 d5 07 be 19 c3 ab 3d
       0.2438389 0.10029148 -0.1326518 0.08386821
0001d0 58 5e b4 bc ea 6f b9 bd e4 da 24 bb f0 5d 17 bd
       -0.022017643 -0.09054549 -0.0025154883 -0.03695482
0001e0 b9 3d 5a bd 12 ef a7 bd 1a cf b4 3b d7 2b ae bd
       -0.05328152 -0.08199896 0.0055178525 -0.085044555
0001f0 95 48 d9 bd ca c6 39 3d 08 e0 ac bd fc 9c 95 bd
       -0.10609547 0.045355596 -0.08441168 -0.07305333
000200 c8 ba 44 be 83 11 3d 3c 1e 65 e5 bc 91 76 02 3d
       -0.19211876 0.01153982 -0.028002318 0.031851355
000210 e3 a7 ba bd ee e8 d8 3c f3 17 ae 3c d3 32 85 be
       -0.09114053 0.026478257 0.021251654 -0.26015338
000220 aa fd 14 be 05 a5 6a bd 6d c4 25 3d 84 c0 e2 3b
       -0.1454989 -0.05728628 0.04047053 0.0069199223
000230 d8 a5 1b be 1f 57 19 3e f0 23 56 3e b2 dd 45 3d
       -0.15199983 0.1497464 0.20912147 0.04830713
000240 34 83 2b be 49 0e 67 bd 14 16 86 3c a5 65 82 bc
       -0.16749269 -0.056410108 0.01636795 -0.015917609
000250 68 a3 29 3e da 67 2e 3e 21 f5 8c 3d 04 43 41 3c
       0.16566241 0.17031804 0.06882692 0.011795763
000260 55 dc 89 3c 47 05 8e bd 4d 5c be bb 8b 15 13 3a
       0.016828695 -0.069346 -0.005809343 0.0005610815
000270 3a 17 d4 bd 97 c3 1c 3d f1 eb 28 bc 9a d0 c0 bd
       -0.103559926 0.038272467 -0.010310159 -0.094147876
000280 6b 81 77 bd 73 98 e3 3c d2 33 c3 bd 71 6c 45 bd
       -0.060426157 0.027782654 -0.09531368 -0.04819912
000290 3f b6 58 3b 08 c2 61 be f9 f1 3e be ae b6 3d be
       0.0033067612 -0.22046673 -0.18646993 -0.18526718
0002a0 bd ed 68 3c ae 30 01 be 66 a5 57 be 7c 60 32 be
       0.0142168375 -0.12616226 -0.21059188 -0.17419618
0002b0 21 99 91 3d 86 fd 70 3d 7d ca ff bd d4 5d 71 bd
       0.07109285 0.05883553 -0.124897934 -0.058927372
0002c0 ec b6 88 bd 65 b8 f5 bc bf e3 8c bc e3 2a 0a be
       -0.066755146 -0.029995153 -0.017198442 -0.13492922
0002d0 d2 1d 4c bd 6f 53 8a bd 39 9c a6 ba 19 0c b2 3b
       -0.049833126 -0.06754195 -0.0012711353 0.005433571
0002e0 5d 85 95 3d aa 06 00 39 f9 1a 8b 3d de bd f4 3d
       0.07300828 0.00012209514 0.06792254 0.11950277
0002f0 97 a4 8b 3d 2a 15 be 3c b1 41 ee bc ff 48 e3 bd
       0.068185024 0.023203451 -0.029084058 -0.11097907
000300 b1 b4 94 3d 9a 16 da 3d 07 52 97 3d 71 a6 dd 3d
       0.07261027 0.10648842 0.07388692 0.10822762
000310 6e fd 80 3e 91 5b 20 3e bd 7f b8 3d b8 90 8e 3c
       0.25193352 0.1565993 0.09008739 0.017402992
000320 6a 8b 10 bd 5b 6e 8f 3c 46 a8 6b bc 15 62 3a bd
       -0.035289206 0.017508676 -0.014383381 -0.045503695
000330 76 a2 16 3e ba f1 cc 3d 79 0a 63 3d b0 a1 32 3d
       0.14710411 0.10007043 0.05542991 0.04361123
000340 d6 2b 06 3e 2b 3d 8a 3b bd ff 36 bc 85 6a 56 3d
       0.1310266 0.0042187176 -0.011169371 0.05234768
000350 6d 07 62 bc 6b 1d a3 bc 9e 13 95 bc 83 7e cf 3c
       -0.013795716 -0.019911489 -0.01819783 0.02532888
000360 fe f2 49 bd 59 0b a3 bd 55 bd 08 3e 94 40 a1 3d
       -0.049304 -0.07961149 0.13353474 0.078736454
000370 3f 0e 21 3e d5 74 05 3e 2c 4f bc 3c cf 38 21 bd
       0.1572809 0.13032849 0.02298697 -0.039360818
000380 47 3d d1 bc 1d 96 37 3c d4 f6 09 3e 34 3d 45 3d
       -0.025541915 0.011205223 0.13473064 0.04815407
000390 e3 7f 87 bd c6 e3 f8 3d ce 6c 17 3c f5 74 35 3b
       -0.06616189 0.12152819 0.00924225 0.002768812
0003a0 b7 5d ac 3d 0e 4b e0 bc ad dd f7 3d f0 8a c4 3d
       0.08416312 -0.027379539 0.12102828 0.09596813
0003b0 b3 aa 30 3b 9b 57 19 3e 7a a1 48 3e b0 37 8e 3c
       0.0026957213 0.14974825 0.19592848 0.017360538
0003c0 9b 8a f9 3c 56 b7 0b 3d 0d f6 f1 3d f4 cb d1 3c
       0.0304616 0.03411039 0.118145086 0.025609948
0003d0 10 62 f7 3c 66 e6 ab 3d 94 c7 55 bd b2 60 c3 bb
       0.030198127 0.083935544 -0.052192286 -0.0059624547
0003e0 aa 24 46 3e 9d d4 49 3d 77 23 40 3e 97 76 fd 3d
       0.19349924 0.04927503 0.18763529 0.12376135
0003f0 77 4b 79 3e 09 2d 60 3e 83 8c 35 bd e7 1a 71 3e
       0.24345194 0.2189218 -0.044323456 0.23545419

convblock1.2.weight f4 [32]
000000 77 2a 87 3f 2b b7 3c 3f 7b de b2 3f 80 7f 99 3f
       1.0559834 0.7371699 1.3974146 1.1992035
000010 35 c8 33 3f 2a af 7d 3f f8 2d 5e 3f e8 25 63 3f
       0.70227367 0.99095404 0.8678889 0.88729715
000020 c4 d1 53 3f 4d 99 d3 3f b9 c1 8d 3f e0 7a eb 3f
       0.8274195 1.6531159 1.1074744 1.8396873
000030 67 56 9e 3f c0 85 59 3f a7 ec af 3f 7b 5f 5c 3f
       1.2370118 0.8496971 1.3744096 0.8608319
000040 aa 80 52 3f e8 4c 9e 3f 31 dc 6d 3f 31 86 a5 3f
       0.82227576 1.236722 0.9291411 1.2931577
000050 76 5b 98 3f 48 fd a7 3f 2f b6 5d 3f af f8 a8 3f
       1.1902912 1.312417 0.86606115 1.3200892
000060 66 96 85 3f c7 13 5b 3f dd c8 4a 3f fe b7 4c 3f
       1.0436523 0.8557705 0.79212743 0.7996825
000070 fc 67 48 3f be b1 8e 3f 8d f7 8f 3f 50 34 ac 3f
       0.7828367 1.1147993 1.1247422 1.3453465

convblock1.2.bias f4 [32]
000000 e8 b8 ca 3d c9 5b 37 3e 14 de 8e 3e 4d d1 17 be
       0.09898549 0.17906107 0.27903807 -0.14825936
000010 7f d2 92 bd ab c9 dc be df 1c 73 be a6 e1 20 3f
       -0.07169055 -0.4312261 -0.23741482 0.6284431
000020 e2 67 f3 be c8 6d 82 3e f6 09 33 3e 82 4d 16 be
       -0.47540194 0.2547438 0.17484269 -0.14678004
000030 c4 4c 32 bd 7d 4a 82 bb eb c2 21 3e 95 22 f9 3d
       -0.04353024 -0.003976165 0.15797012 0.12164799
000040 4b 34 9b be 31 c2 5e be 1f 85 45 be 05 b0 7c 3e
       -0.30313334 -0.21753766 -0.19289063 0.24676521
000050 42 71 04 3e 09 c4 b6 bd 45 49 74 be 4b d2 84 bd
       0.1293383 -0.089241095 -0.23856075 -0.06485423
000060 2f b6 94 3e 1b 44 e2 be f1 26 36 3c 03 2a 2d 3e
       0.29045245 -0.44192585 0.011117683 0.16910557
000070 4e b3 d1 be e0 b2 64 be c2 e9 98 be 4c 8c b3 3d
       -0.4095711 -0.2233386 -0.29865843 0.08766994

convblock1.2.running_mean f4 [32]
000000 80 9b ff 3f 0a f4 ab 3f 52 b5 2e 40 5c 5e 0e 40
       1.996933 1.343385 2.729817 2.2245092
000010 eb 61 22 40 22 25 8a 3f 0d 6f bb 3f db 8e df 3f
       2.5372264 1.0792582 1.4643265 1.7465471
000020 a7 8c 74 3f f9 d4 4d 40 33 81 52 40 17 81 87 40
       0.9552712 3.2161238 3.2891357 4.234508
000030 ed 53 11 40 0b 83 55 40 62 fb 43 40 9f 47 34 40
       2.2707474 3.3361232 3.0622182 2.8168714
000040 79 8a 53 40 42 90 03 40 ac cf b4 3f e4 06 4c 40
       3.3053267 2.0556798 1.4125876 3.1879206
000050 f6 3a 51 40 fa f8 f5 3f 3c 5d 07 40 97 89 1a 40
       3.2692237 1.9216607 2.1150656 2.4146478
000060 ea 21 0f 40 51 53 b4 3f 37 c9 ce 3f 48 b1 1e 40
       2.236445 1.4087926 1.6155156 2.4795704
000070 0c 3a 89 3f 9c 00 08 40 23 fd 08 40 87 32 25 40
       1.072084 2.1250372 2.1404502 2.581209

convblock1.2.running_var f4 [32]
000000 cd 01 63 41 b3 90 ba 40 fa f7 53 41 36 75 10 41
       14.18794 5.8301635 13.248041 9.028616
000010 05 5a 20 41 7f ef 96 40 4e 32 ad 40 01 cc 84 41
       10.021977 4.7167354 5.4123907 16.599611
000020 5a 14 99 40 ce cd 8f 41 99 85 37 41 e9 8f be 41
       4.7837343 17.97549 11.470117 23.820269
000030 4f da 1a 41 83 ab 80 41 06 34 3f 41 62 6b e1 41
       9.678298 16.083746 11.950201 28.177433
000040 94 4c ad 41 3b 4d fd 40 11 62 c8 40 41 83 86 41
       21.662392 7.9156775 6.261971 16.814089
000050 24 00 81 41 b4 ca e0 40 8a a6 59 41 47 8f 43 41
       16.125069 7.024744 13.603159 12.22248
000060 b0 7d 16 41 4f e7 03 41 32 f0 c5 40 00 e3 4c 41
       9.405685 8.243972 6.1855707 12.80542
000070 4a d3 9c 40 7b 3d 70 41 74 20 14 41 4c cb 3b 41
       4.900792 15.01501 9.257923 11.737133

convblock2.0.weight f4 [64, 32, 3, 3]
000000 50 e0 89 bd 2a 81 3f bd 75 9e 15 bd d4 06 89 bd
       -0.06732237 -0.04675404 -0.03652807 -0.066907555
000010 c9 9c 13 3e ba de e3 3d 41 57 12 3d 2d 38 25 3c
       0.14415278 0.11126466 0.035727743 0.010084194
000020 f7 e1 d1 3d ee c6 af 3d 76 37 f2 bd 3d 3c ea bd
       0.102481775 0.08582865 -0.118269846 -0.11437271
000030 94 1c 47 3c 7c 92 2f be 9f 57 1d be f2 00 58 3c
       0.01215281 -0.17145723 -0.15365456 0.013183819
000040 13 4b 46 bd 45 61 bc bd bb 43 9f bd ef 22 b4 3d
       -0.04841144 -0.0919824 -0.077765904 0.087957256
000050 22 28 07 3e 74 04 a2 3d fb a0 86 3e 0b 1f 0b be
       0.13198903 0.079110056 0.26294693 -0.1358606
000060 c5 f8 d2 3d 1b e1 44 3e 7b f2 2e be 6f a7 37 3e
       0.10301355 0.19226496 -0.17084686 0.17934965
000070 a2 d7 af bd c5 7c e2 3d a3 6a c8 3d 07 c1 75 be
       -0.085860506 0.11058954 0.09785964 -0.23999415
000080 49 09 2b 3e 16 1a 3d bc db ce cb 3d d1 f6 2a bc
       0.16702761 -0.011541864 0.09951564 -0.010434822
000090 42 a0 e9 3d c1 4e 15 3d 55 b6 36 bc d1 67 46 3e
       0.1140752 0.03645206 -0.01115187 0.1937554
0000a0 49 e8 e2 bd 3f b2 97 bd 0b ab fa 3d a5 7e 12 be
       -0.11079461 -0.074070446 0.12239655 -0.14306124
0000b0 b9 3a 24 bc d8 b7 05 3d 5b c1 fd bc 06 e0 ea bd
       -0.010023766 0.03264603 -0.030975988 -0.1146851
0000c0 e6 d7 2c 3d 8e e8 72 bd 06 30 53 3b d3 cc b4 3d
       0.042198084 -0.059303813 0.003222467 0.088281296
0000d0 6a d5 aa bc 35 37 8c bc d9 c6 d3 3c 01 cf 1e bd
       -0.020853717 -0.017116169 0.025851654 -0.038771633
0000e0 b4 80 8d bd 2c 4e 5f bd 23 86 15 3e a4 5c 33 be
       -0.06909314 -0.05451791 0.1460195 -0.17515808
0000f0 1d 59 a9 bd e1 f8 bd 3d 7a a1 34 be e1 87 9e bc
       -0.0826895 0.092759855 -0.17639723 -0.019351901
000100 4f d0 bc bc df e8 9f bd 9b bc 1f 3d 30 ce a3 bd
       -0.023048548 -0.078080885 0.038998228 -0.079983115
000110 5b df 97 bd 2a 87 3f 3e be bf 23 3e be c5 18 3e
       -0.074156485 0.18703905 0.15991113 0.14919183
000120 71 45 dd bc 65 89 9b bc da 29 6d bd 7f 39 48 3d
       -0.027010651 -0.018986413 -0.05790124 0.048882958
000130 32 a1 4b bd 03 5c 0c bd 93 de d5 3c 6a 6c 8d bc
       -0.049714275 -0.034267437 0.026107108 -0.01726361
000140 1a fa cc bd 0a 84 59 3e ee 62 58 be 7a a8 0b 3c
       -0.100086406 0.21241775 -0.21131489 0.008524055
000150 97 3a dd 3b f8 c6 9c 3e 4c e8 c3 bb 2f 60 a7 be
       0.006751369 0.3062055 -0.0059786197 -0.3269057
000160 5d af 61 3d ab c9 90 bd 15 f8 86 3e c0 d9 be bd
       0.05509888 -0.07069715 0.26361147 -0.09318876
000170 05 48 3e 3d 8f b8 21 3a 79 a8 96 be 37 68 59 3e
       0.046455402 0.0006169164 -0.2942541 0.21231161
000180 47 3c ae bb 74 06 a6 bd bd 2b a0 bd 53 32 7b 39
       -0.005317244 -0.081066996 -0.078208424 0.00023955973
000190 4f 27 3c bd 07 ba 11 3e 23 bc cc be 4e 8e 35 3f
       -0.045935925 0.1423112 -0.39987287 0.70920265
0001a0 64 3f ae be 41 23 90 be 10 00 1f 3e 52 e6 2a be
       -0.34032738 -0.28151897 0.15527368 -0.16689423
0001b0 39 a1 66 bd e0 d5 f0 bd 8b 43 a8 bd d8 d2 71 3d
       -0.056306098 -0.117595434 -0.08216008 0.059038967
0001c0 8f 15 8a be a8 a4 49 3e 08 fc 18 3d fd ca 81 bd
       -0.26969573 0.19691718 0.03734973 -0.06337545
0001d0 8f 3d 6f 3e 43 78 8c 3d 37 19 8d 3d 8e 26 d8 3d
       0.23363326 0.068588756 0.06889575 0.10554229
0001e0 62 f4 5a bd 21 67 39 bd e7 78 50 3d ab 08 a6 3b
       -0.053455718 -0.045264367 0.05089655 0.0050669513
0001f0 40 a1 35 3d 8e 15 1c 3e ad bb 4e 3d 34 cf 02 be
       0.044343233 0.15242597 0.05047195 -0.12774354
000200 85 a3 55 be 06 62 d4 bd 8b 6b 7d 3d c1 36 e7 bc
       -0.20863159 -0.10370259 0.06187014 -0.02822435
000210 23 6c 69 bc d3 83 99 3b 88 ae 5f 3e 72 40 4f be
       -0.014246973 0.004684904 0.21843922 -0.20239428
000220 b2 21 22 be ae 55 40 be 62 75 99 bd 31 0d cd bc
       -0.15833166 -0.18782684 -0.07493092 -0.025030704
000230 e0 aa d3 3c a1 0a ae bb 11 b8 b2 3c e1 4f d8 bc
       0.025838315 -0.0053113257 0.021816285 -0.026405277
000240 34 ab 24 bc 61 dd 9e bd 44 0d 8b bc c8 8c a4 bd
       -0.010050584 -0.077570684 -0.016974099 -0.080346644
000250 ee d0 8e bc 38 e9 66 3e 58 1c a7 3c c6 cf 4f 3c
       -0.01743361 0.22549903 0.020399258 0.012683814
000260 a6 ec 06 3e 78 e1 d6 bd c4 72 a4 3d 2a 06 e2 3c
       0.13176212 -0.104922235 0.08029702 0.02759083
000270 40 fc c2 3d 41 9a 70 be a2 17 8a 3e aa db e6 3d
       0.09520769 -0.23496343 0.26971155 0.11272366
000280 72 d2 d3 bd 29 c6 5d 3e 45 83 50 be bb ae 39 be
       -0.10342874 0.21657623 -0.20362575 -0.1813306
000290 6f 8e 81 bd 03 6f 1f bd 99 8a 77 3d b9 d8 ae bb
       -0.06325995 -0.03892423 0.06043491 -0.005335894
0002a0 83 4a bc 3d 4d 61 6d 3e 82 15 20 be 1e 2a 51 3e
       0.091938995 0.23181649 -0.15633205 0.20426223
0002b0 07 2c 48 3d a6 3f c0 3d 61 24 a7 bd 25 f6 a7 be
       0.048870113 0.0938714 -0.081612356 -0.3280498
0002c0 67 f5 63 3e 83 d8 f8 bc be 22 c9 bd 51 04 54 3e
       0.22261582 -0.030376678 -0.0982108 0.20704772
0002d0 08 84 20 3e cc 6d 96 3d 09 ab 82 bd 34 eb 03 3d
       0.15675366 0.07345161 -0.063802786 0.03220673
0002e0 37 c7 2d be ca 4f 04 3e 88 85 77 3e 23 ee 0b bc
       -0.16970526 0.12921062 0.24172032 -0.008540663
0002f0 2d 82 07 3e 85 53 1b bd d6 0b 27 3e c4 5c f8 bc
       0.13233252 -0.037921447 0.16313109 -0.030317672
000300 bb 32 56 3e db 6f 24 be d4 17 ab 3d 42 b3 69 3d
       0.2091779 -0.16058294 0.08354154 0.05705572
000310 40 d8 6a be be c6 e9 3d 61 27 4d 3d f6 6a 6b 3c
       -0.22934055 0.1141486 0.050086383 0.014368763
000320 2c 24 89 bd 9d 2d 20 bc a7 37 a8 3d 29 ae 45 3d
       -0.06696352 -0.0097765 0.0821374 0.048261795
000330 51 42 c5 3b 8d 13 90 3d 37 1c 03 3e 7f 7c 71 3e
       0.0060198684 0.07034979 0.12803732 0.23582648
000340 b5 ac 0f 3e 2a e0 a7 be 49 32 08 3f 8f bc 30 be
       0.14030726 -0.3278821 0.5320173 -0.1725943
000350 1b e4 2b be e1 a1 f5 3d ca ef 49 be 33 7b fa bd
       -0.16786234 0.119937666 -0.19720379 -0.1223053
000360 95 b6 8b bb 7f df 35 be 98 c8 13 3e 67 29 9c 3d
       -0.004263709 -0.17761038 0.14431989 0.07625084
000370 ae b1 4b be bc 75 c9 3d c1 f5 25 3d 7d 84 04 bd
       -0.19891998 0.09836909 0.040517572 -0.032352913
000380 a3 c5 58 3e d8 69 96 bb 77 95 a3 bd 1f ad 27 bd
       0.21169142 -0.0045902543 -0.079874925 -0.040936586
000390 0b 93 79 bc 60 64 5b bc 0e ab 09 3e ea a0 b0 bc
       -0.015232812 -0.0133906305 0.13444158 -0.021561105
0003a0 99 73 44 bd 6c c2 9a bd cc bd 84 bd db a0 48 3d
       -0.047961805 -0.07556614 -0.064815134 0.04898153
0003b0 25 57 9c 3c c6 ee 6d 3d 7c 4c 9e bb a3 34 97 3b
       0.019084523 0.05808904 -0.004830895 0.004614429
0003c0 f3 57 6b bc ff b4 b0 bd 51 0c 92 bd af 7b ce bd
       -0.01436423 -0.08628272 -0.071312554 -0.100821845
0003d0 1e e1 37 be 87 c7 5b be 39 ed f5 bd 05 22 85 bd
       -0.17956969 -0.21462832 -0.12008137 -0.06500629
0003e0 ef e2 10 3c af 7e 09 be a9 94 f5 bb bf 3f 22 3e
       0.008843168 -0.13427232 -0.0074945283 0.1584463
0003f0 dd a8 cf bd 35 c3 16 be 06 95 ea bb 12 9d ab bc
       -0.1013963 -0.14722903 -0.0071588783 -0.02094892

convblock2.2.weight f4 [64]
000000 6f 84 9a 3f b8 6d a0 3f 5f 8f 89 3f 13 12 90 3f
       1.2071666 1.2533484 1.0746878 1.1255516
000010 57 8c 7c 3f 79 4b 7f 3f 8d 8d 7c 3f 03 83 78 3f
       0.9865164 0.9972454 0.9865349 0.9707491
000020 9e 82 79 3f e9 39 7a 3f cc 2d b5 3f 99 f9 9d 3f
       0.9746493 0.97744614 1.4154601 1.2341796
000030 a2 ff 81 3f c3 01 67 3f 50 94 91 3f d6 88 9c 3f
       1.0156138 0.90237063 1.1373386 1.2229259
000040 46 2f 7f 3f c2 f8 65 3f 06 45 6c 3f 0d af 6e 3f
       0.9968151 0.898327 0.9229282 0.93235856
000050 fc d3 79 3f c2 ce 77 3f ce dd 89 3f 44 8c 86 3f
       0.9758909 0.9679986 1.0770814 1.0511556
000060 7c af ac 3f 6d 81 91 3f fe 4b 84 3f 85 b7 88 3f
       1.3491054 1.1367623 1.0335691 1.0681006
000070 72 94 81 3f e0 95 93 3f 57 b6 54 3f ce 3f 69 3f
       1.0123427 1.1530113 0.8309073 0.91112983
000080 cd cb 9c 3f a2 2c 7f 3f 2d 7e 96 3f b6 38 86 3f
       1.2249695 0.9967748 1.1757256 1.0486057
000090 af ee 82 3f 4a e7 78 3f a7 24 8e 3f e4 0a 80 3f
       1.022909 0.9722792 1.1104935 1.0003324
0000a0 82 51 83 3f 4b 4a 50 3f 9f 1d 4d 3f 3e 27 78 3f
       1.0259249 0.8136336 0.80123323 0.9693488
0000b0 ee 19 a8 3f 46 53 5c 3f d6 cd 55 3f 8d 78 4f 3f
       1.3132913 0.86064565 0.83517206 0.8104332
0000c0 fe f2 8f 3f 45 07 8f 3f dc 29 89 3f 82 18 40 3f
       1.124603 1.1174093 1.07159 0.75037396
0000d0 8c 3e 97 3f f3 34 65 3f 7d 41 8b 3f 35 61 6b 3f
       1.1815963 0.8953392 1.087936 0.919452
0000e0 dc 6f 74 3f 3c f5 58 3f 5f 4a 88 3f 91 c0 94 3f
       0.95483184 0.847492 1.0647696 1.1621267
0000f0 b5 ff 3a 3f cb c9 92 3f f7 c5 94 3f e6 1f 81 3f
       0.7304643 1.1467832 1.1622914 1.008786

convblock2.2.bias f4 [64]
000000 34 d7 1d bc f7 75 c4 3d 3e a7 7e bd b0 cd 15 be
       -0.009633828 0.095928125 -0.062171213 -0.14629245
000010 b3 7b 78 3d 9a 04 5e 3d ce 22 37 bd 5c 1d 05 be
       0.060664844 0.054203607 -0.044710927 -0.12999481
000020 9c 57 12 3e 5c 01 77 be 9a 6a 39 3e 7b 54 28 be
       0.14291233 -0.24121612 0.18107072 -0.16438477
000030 a6 16 34 3d d5 0d cb 3c 56 76 9f bd d1 56 78 3d
       0.04396691 0.024786869 -0.07786243 0.06062967
000040 d4 78 be bb 1e cb 93 bc 9d 72 b8 3d d5 1b 70 3d
       -0.0058127437 -0.01804119 0.09006236 0.058620293
000050 8b 8d 0e 3e 10 1e e7 3c 27 78 02 bd 61 d0 bb bd
       0.13921182 0.028212577 -0.031852867 -0.091706045
000060 dd f9 b5 bc f5 98 a1 bd 5b fb ad 3d d8 09 4d 3b
       -0.02221387 -0.07890502 0.08495208 0.0031286385
000070 ce a0 1a be ea 1d a2 3b 89 cd 3a 3d 98 ce e3 3c
       -0.15100405 0.0049474137 0.04560617 0.027808473
000080 eb 39 99 3e eb 30 90 bd 79 0e 7b 3c 37 1d 74 3d
       0.29927 -0.0704058 0.015323275 0.059598174
000090 8c ef 8b bb 23 8b 8b bc 23 a7 3e 3e 10 a0 1e bd
       -0.0042704996 -0.017034119 0.18618445 -0.038726866
0000a0 0f 79 b1 bd 16 10 d6 3d 69 47 99 3d 79 f9 7e 3d
       -0.08665668 0.10452287 0.074843235 0.062249634
0000b0 ba 30 ab 3e 86 81 83 bd 7b 0a f8 3d 45 c1 1b be
       0.33435613 -0.06421189 0.12111374 -0.15210445
0000c0 e2 d1 fd bd b5 04 eb 3d 66 6a 08 bb da e0 82 be
       -0.123935476 0.11475507 -0.0020815372 -0.25562173
0000d0 5a fd 52 3e aa 7a a9 3d 34 0b 64 3d 4b 5b 00 3d
       0.20604458 0.082753494 0.055674747 0.031337064
0000e0 74 4a b7 3d db 33 0c be 66 77 0d 3d e8 2c d5 bd
       0.08949748 -0.13691656 0.034537695 -0.10408956
0000f0 17 6e eb bd 68 26 be 3d 5b 25 01 be 04 68 0c 3e
       -0.11495607 0.09284669 -0.12611906 0.13711554

convblock2.2.running_mean f4 [64]
000000 6a 48 24 40 fb f0 3e 40 8f 08 3b 40 e0 0f 0a 40
       2.5669198 2.9834583 2.9223974 2.157219
000010 3f d2 ff 3f 88 9b 04 3f 18 4d 93 3f 7b 1c 8c 3f
       1.9986037 0.5179982 1.1507902 1.0946192
000020 a5 bd e8 3f 58 16 f9 3f 38 c2 02 40 5a f1 a4 3f
       1.8182875 1.9459944 2.0431042 1.2886155
000030 da 40 8c 3f 09 50 88 3f fa cf e9 3f 85 56 78 40
       1.0957291 1.0649425 1.8266594 3.8802807
000040 9d 11 23 40 e4 49 48 3f 9b 2e cf 3f 80 ba 39 3f
       2.54795 0.7823775 1.6186098 0.725502
000050 2f 87 10 3f ec 34 66 3f 91 ab 0a 40 92 12 70 40
       0.56456274 0.899245 2.1667216 3.7511334
000060 86 fa 0e 40 6c 08 a5 3f 52 c1 28 3f 77 3e c9 3f
       2.2340407 1.2893195 0.65919983 1.5722188
000070 6a a5 d1 3f c2 76 0a 40 83 b7 9b 3f a8 65 7a 3f
       1.6378605 2.1634984 1.2165378 0.97811365
000080 ba 4a 67 3f 93 ab ae 3f 26 d0 1c 40 3a fe db 3e
       0.903484 1.364611 2.4502044 0.42967397
000090 93 da 9d 3f 2f 84 b0 3f d2 c4 bc 3f 4a 27 08 40
       1.2332329 1.3790339 1.4747565 2.127398
0000a0 fb b3 e3 3f 79 2d 77 3f d5 5c 81 3f a1 ee d5 3f
       1.7789301 0.9655376 1.0106455 1.6713449
0000b0 d4 ee 8f 3f 92 74 4b 3f d0 55 73 3f a1 49 c7 3f
       1.124476 0.7947475 0.95052814 1.5569345
0000c0 b7 b6 b9 3f f7 2a 03 40 55 10 29 40 74 4d d7 3f
       1.4508885 2.0494974 2.6416218 1.6820512
0000d0 5d 62 00 40 b9 c5 38 3f 72 2a 18 3f 44 4d 2b 40
       2.0060036 0.721767 0.59439766 2.676591
0000e0 6d db 4e 3f 5c d8 7b 3f bd 49 e0 3f 60 b1 9a 3f
       0.8080357 0.98377013 1.7522503 1.208538
0000f0 26 9c a9 3f 9d 72 f4 3f de 93 53 40 6e 1e cf 3e
       1.3250778 1.9097477 3.3059 0.40452904

convblock2.2.running_var f4 [64]
000000 54 d1 85 41 d5 9e 68 41 d1 14 4a 41 85 06 3c 41
       16.727211 14.538777 12.630082 11.751592
000010 5b 17 f5 40 0f 62 be 3f 8a fe 83 40 1c 4e 8c 40
       7.659101 1.4873675 4.1248217 4.384535
000020 67 ed 0a 41 71 06 de 40 83 be 4f 41 25 46 e3 40
       8.68296 6.9382863 12.984012 7.1023126
000030 5c 32 b0 40 f9 d2 97 40 78 b6 f6 40 7f 2d 8a 41
       5.5061474 4.7445035 7.709774 17.272215
000040 28 dc 29 41 49 16 39 40 69 25 d8 40 4a ab 21 40
       10.616249 2.8919852 6.7545667 2.5260797
000050 2d 0d d2 3f 7b 23 55 40 78 bf 0f 41 1a 8e 7b 41
       1.6410271 3.3302906 8.984245 15.722193
000060 59 7b 30 41 0a 11 c4 40 fa 66 73 40 7f b2 cf 40
       11.030114 6.12708 3.8031602 6.490539
000070 43 16 fa 40 d2 79 24 41 6b ec 81 40 b5 81 7c 40
       7.8152175 10.279741 4.0601096 3.9454167
000080 db 5f 92 40 ef 50 ea 40 f2 80 37 41 fb d4 0e 40
       4.574201 7.3223796 11.468981 2.2317493
000090 e3 bb 94 40 b7 3e 9e 40 cc 31 dd 40 84 ea 06 41
       4.6479354 4.9451556 6.9123287 8.432255
0000a0 f6 dc 1c 41 75 30 5b 40 71 09 41 40 e5 46 d7 40
       9.803946 3.4248326 3.0162013 6.727404
0000b0 40 7b f6 40 3b 2f 26 40 f7 45 43 40 ab 4a ca 40
       7.702545 2.5966327 3.0511453 6.3216147
0000c0 9f 0b 04 41 b2 dd 23 41 45 15 30 41 20 54 bd 40
       8.252837 10.241625 11.005193 5.916519
0000d0 84 16 1a 41 26 98 34 40 d9 0e 3d 40 3f 92 fc 40
       9.630497 2.8217864 2.9540312 7.8928523
0000e0 5d 59 2c 40 29 3b 4d 40 ab f0 dd 40 20 3a b4 40
       2.6929543 3.2067358 6.9356284 5.6320953
0000f0 42 c1 72 40 f3 9f 12 41 bd f0 50 41 ff d6 bc 3f
       3.7930455 9.16405 13.058774 1.4753112

transitionblock1.0.weight f4 [32, 64, 1, 1]
000000 2a e5 56 3e 92 87 c2 3e 55 66 e6 be f7 71 a4 3e
       0.20985857 0.37994057 -0.44999948 0.32118198
000010 09 d6 f4 3c ad e0 22 bd 67 9c 2b be 63 14 37 3e
       0.029887216 -0.03976505 -0.16758882 0.1787887
000020 6b f2 c2 bd 31 b8 3d 3d 37 0e 01 3f bd b8 5d 3e
       -0.09518894 0.046318237 0.50412315 0.21652503
000030 44 52 22 bb b7 f1 b5 be 4e ae 1e 3e f0 f5 cb 3d
       -0.0024768272 -0.35535976 0.1549618 0.09959018
000040 5f 6d 0b be fb e5 86 be 58 54 70 3e 53 44 8d 3e
       -0.1361594 -0.26347336 0.23469675 0.2759119
000050 29 3b 95 3e 85 de 1e be e8 ca 2d 3f e5 9b 71 3d
       0.29146698 -0.15514572 0.67887735 0.058986563
000060 14 20 09 be 7d 02 81 3e ac 65 a6 3b be 27 38 3e
       -0.13391143 0.2519721 0.005078038 0.1798391
000070 3c d7 0c 3d 13 f7 df 3e c8 0f 2e 3e 5e c3 99 be
       0.03438495 0.4374319 0.16998208 -0.30031866
000080 ec 0f 1d bd d6 dc a4 be 5d 13 53 3e f9 d3 80 bc
       -0.038345262 -0.32199734 0.20612855 -0.015726076
000090 7a 6b 6f 3e bb 73 4a 3c 4c a9 61 3e e4 2d 8c 3e
       0.23380843 0.012356694 0.22037238 0.27378762
0000a0 e6 cb 88 3e b4 82 d4 3d b7 b0 e1 be 2d f2 8f bc
       0.26718062 0.10376492 -0.44080135 -0.017571533
0000b0 e2 8d f4 be 87 f6 20 be c5 4c 06 be 33 e5 a6 be
       -0.47764498 -0.15719043 -0.13115223 -0.3259674
0000c0 f1 07 d4 bc 76 33 e6 3b 13 e0 8a 3d d0 29 25 3f
       -0.025882693 0.0070251776 0.0678102 0.64516926
0000d0 ab 15 ec bd e9 c3 dd be c1 40 70 bd 7a 3e 9e 3d
       -0.1152757 -0.4331353 -0.058655504 0.0772676
0000e0 b9 5b b8 be c2 bf 28 3f 1f 3f 7f be 13 5a 0d bd
       -0.3600748 0.659176 -0.24926423 -0.03450973
0000f0 74 88 88 bc 44 10 39 3e eb 15 98 3e 0f 98 0c be
       -0.016666628 0.18072611 0.29704222 -0.13729881
000100 44 84 00 be 0f eb 91 be d9 fe ad 3c 73 d8 cc 3d
       -0.12550455 -0.28499648 0.021239685 0.10002222
000110 9e fc d0 3e b0 35 e3 3c 3f 9f 0b bd 7f 5c 20 3e
       0.40817732 0.027735561 -0.034087416 0.15660284
000120 64 cf 6c 3e ac 1c b1 be f6 e8 97 3e 48 cb 2f 3d
       0.23125988 -0.34592187 0.29669923 0.042918473
000130 bc a7 f9 3d d9 a6 8c 3e aa 7f f8 3d 55 c1 0a 3e
       0.12190196 0.27471045 0.12133725 0.13550313
000140 75 8e a6 be 4c b7 63 3d 23 69 49 bd 92 d3 83 be
       -0.3253056 0.055594727 -0.04917253 -0.25747353
000150 cc c3 30 be e3 98 c1 3e 81 81 c4 bd 52 ab 4a 3e
       -0.1726219 0.37811956 -0.095950134 0.19791916
000160 1e bd 83 be 8a 7a a7 3e 80 4b b6 bd 4a 47 e1 3e
       -0.25730222 0.32710677 -0.08901119 0.43999702
000170 b1 45 fc 3d 23 d7 ee 3e b8 4e 90 3b 46 ff 45 be
       0.1231798 0.4664851 0.0044039153 -0.1933566
000180 49 62 04 bf 55 bc b6 bc bb a3 91 3e 5a e3 a5 3e
       -0.5171247 -0.0223066 0.2844523 0.32400018
000190 b8 08 65 3d a2 bb 05 be 84 de 95 3e 0f e6 55 be
       0.055916518 -0.13059857 0.29271328 -0.20888542
0001a0 b0 e6 be bd 38 24 c5 bd 08 6d 1b be 53 c0 ce be
       -0.09321344 -0.09626049 -0.15178311 -0.40381107
0001b0 4a 27 17 be 16 ed 9a 3e 42 ea 0a be 55 7a 0b 3e
       -0.14761081 0.30259007 -0.13565925 0.13620885
0001c0 17 3d f8 3e a4 fc 03 be 39 de 55 be e0 f5 80 be
       0.48484108 -0.12889344 -0.20885552 -0.25187588
0001d0 1e 0e 42 be d6 12 39 3f 27 43 0e 3f ea 66 10 be
       -0.18950698 0.72294366 0.55571216 -0.14101759
0001e0 82 61 27 bd 48 9d 1a be 95 d9 24 3e 6b 84 93 be
       -0.040864475 -0.1509906 0.16098626 -0.28811964
0001f0 59 c0 17 3b fa 7a 5e be da f8 7f 3e d4 27 4f be
       0.002315542 -0.217266 0.24997273 -0.20230037
000200 a0 b9 65 3d 73 fb 16 3e c3 b1 72 be 96 2f ab be
       0.05608523 0.14744358 -0.23700623 -0.33434743
000210 31 65 7f 3e f6 62 27 be 7f 02 b0 be 3c 27 80 be
       0.24940945 -0.16346344 -0.34376904 -0.25029933
000220 e4 47 b6 bd 54 38 45 3e 5a 79 33 3f 11 22 7b be
       -0.08900431 0.19259769 0.7010704 -0.24524714
000230 86 0f 97 3e 85 3f fd be c3 77 f7 be 10 52 e4 bd
       0.2950403 -0.49462524 -0.48333558 -0.11148465
000240 c5 ab f9 be 1a c5 e4 bd 26 81 5a 3e 08 df 15 be
       -0.48763862 -0.11170407 0.21338329 -0.14635861
000250 6b 36 3f bd ee ed a8 be 62 6c 40 bf 62 67 26 bf
       -0.046682756 -0.32994026 -0.7516538 -0.650015
000260 ae ee 12 3e f8 e3 37 be 11 e2 0a bd 3d 96 11 3e
       0.14348862 -0.17958057 -0.033907 0.14217468
000270 d4 5a e3 bd a1 44 c0 3e ad 12 a0 be db 44 43 bd
       -0.111013085 0.3755236 -0.31264248 -0.047673088
000280 fb 7f 09 be 0e 9d 04 3d 8f e7 9d 3e c5 71 0b 3f
       -0.13427727 0.03237634 0.30840728 0.54470474
000290 99 50 f2 3d ab 97 7d bd 69 13 b9 3d eb 7b 5f bc
       0.11831779 -0.06191222 0.09036905 -0.013640384
0002a0 1b cb a9 be dc 09 88 be c5 82 a1 bd db 83 73 3e
       -0.3316277 -0.26570022 -0.078862704 0.23780768
0002b0 21 c2 c1 be ec 2e 01 bd 13 ef 33 bd 51 7f 95 bd
       -0.3784342 -0.03153889 -0.04392917 -0.07299674
0002c0 8b 38 12 3e 97 ee c6 3e 2b be ae 3e 18 54 2b 3e
       0.14279382 0.38853905 0.34129462 0.16731298
0002d0 e5 89 0b 3e 06 e8 54 3e 4a ba b3 be 65 da 91 3e
       0.13626821 0.20791635 -0.35103065 0.28486934
0002e0 36 fd ef bc 0c c5 34 3d 5e fd 33 be ca 52 05 3e
       -0.029295545 0.04413323 -0.1757712 0.13019863
0002f0 1c ce bd bd 1f 4b 82 3b c8 33 00 bf 34 73 be be
       -0.09267828 0.0039762403 -0.5007901 -0.37197268
000300 51 9b 38 be 5d ca 2f bf c5 19 8e 3d 2d 7a 5e 3e
       -0.18027999 -0.68668157 0.06938509 0.21726294
000310 d2 7d b4 be 75 a4 c7 39 58 c8 87 3e ea 95 04 be
       -0.35252243 0.00038078768 0.26520038 -0.12947813
000320 54 b1 15 be 60 11 01 bf cc f8 b2 be 26 af e8 3d
       -0.14618427 -0.5041714 -0.34955442 0.11361532
000330 c5 20 15 be 3a 75 c9 bd 13 ce 0c 3f 75 cd 79 3e
       -0.14563282 -0.09836812 0.55001944 0.24394782
000340 f0 6d 13 3d 90 5d 49 3e 38 f3 15 be 48 bf c8 3e
       0.035993516 0.19664598 -0.14643562 0.39208436
000350 6e 07 fc 3d fa 9c 1f be cc e3 a1 3d 7c 6e 86 3e
       0.123061046 -0.15587226 0.07904777 0.26256168
000360 c7 bd e4 be d5 f9 a4 be c8 4c a5 bd 56 53 2a be
       -0.4467604 -0.32221857 -0.080712855 -0.16633353
000370 5c b5 3f 3c dc 1a b8 be 53 74 ba be 19 79 9f 3e
       0.011700954 -0.35957992 -0.36416873 0.31147078
000380 26 fb df bc 30 42 3e 3e 43 13 79 be c5 20 98 3e
       -0.027341437 0.18579936 -0.24323754 0.297125
000390 30 5f 72 be eb df 70 3d 74 33 a4 be 5f a0 68 be
       -0.23669124 0.058807295 -0.32070506 -0.22717427
0003a0 af af e3 3e c1 95 62 be 3d 4a e7 3e f5 40 5a bd
       0.44469973 -0.22127439 0.45173827 -0.053284604
0003b0 f0 2c 91 be ed 74 75 be 6e eb 5c 3e f6 7c 0c 3e
       -0.28354597 -0.23970385 0.21574184 0.13719544
0003c0 ae c8 c4 bd d4 98 3b 3e 34 bf 4c be 2b 67 37 3e
       -0.09608589 0.18320018 -0.19994813 0.17910449
0003d0 d8 cc aa 3e 92 0e a8 3c 26 d5 52 bd 14 81 d0 be
       0.33359408 0.02051476 -0.051472805 -0.4072348
0003e0 f7 dc 2c b9 6f 93 2c bd ec 2e a2 3e c6 cd dc 3e
       -0.00016485514 -0.04213279 0.31676424 0.43125743
0003f0 2f 33 25 3e 5d a5 4f 3e c5 06 c6 be 18 b5 55 3e
       0.16132806 0.20277925 -0.3867704 0.20869863

convblock3.0.weight f4 [32, 32, 3, 3]
000000 c9 89 16 bd 15 7c 9e 3d c0 00 aa 3d 5d e1 8b 3d
       -0.036752496 0.077385105 0.08300924 0.06830094
000010 1e 74 59 3e 7f e8 46 3e e6 ef 0c 3d 6d 8f 77 3d
       0.21235701 0.19424628 0.034408472 0.060439516
000020 6d 9f 75 3e a4 4a 21 3d 25 48 78 be 22 a6 6d be
       0.23986597 0.039377823 -0.24246271 -0.23207906
000030 d8 91 66 3b 70 d6 66 be c1 0f b7 be 81 7f 52 3d
       0.0035182144 -0.22542739 -0.35754207 0.05139113
000040 56 4d 0d be 07 30 82 be bd 10 2e be 46 ce a8 be
       -0.13799033 -0.25427267 -0.16998573 -0.32969874
000050 78 22 52 be bf 42 09 3b 22 18 20 be 7b d0 aa bc
       -0.20520961 0.0020944325 -0.15634206 -0.020851364
000060 38 25 9a 3e 31 cd 00 3f 89 ad 23 3d d4 47 93 be
       0.3010652 0.503131 0.039960418 -0.28765738
000070 17 06 8b be 89 a5 7e bc c4 0b 21 3e 29 fc cd bd
       -0.27153084 -0.015542396 0.15727144 -0.10057861
000080 21 ef 50 bc 1c 75 97 3e 51 5b 5c 3e de 5b 18 3e
       -0.012752325 0.29581535 0.2151921 0.14878795
000090 9f 16 3a bd 0b a9 0a be cb f5 58 be ce 47 fd 3d
       -0.04543173 -0.13541047 -0.21187513 0.12367211
0000a0 0a cc 5c bd 92 11 92 bd 5a 78 46 3e af fb d4 3d
       -0.053905524 -0.071322575 0.19381848 0.10399567
0000b0 ef 65 bc bd d0 9d a3 3d 19 63 00 be 20 26 9a 3b
       -0.0919913 0.07989085 -0.12537803 0.004704252
0000c0 48 f4 1e 3e 64 29 c6 bd aa 01 cd 3b c3 e8 a6 3e
       0.15522873 -0.096758634 0.006256302 0.32599458
0000d0 2b 65 a0 3e b5 2f 57 bc bd 22 54 be a1 8f 88 be
       0.31327185 -0.013133933 -0.20716377 -0.2667208
0000e0 2a 4d 88 be bc 0c f0 bd b3 09 88 be 1f 45 a5 be
       -0.26621372 -0.11721179 -0.265699 -0.32279298
0000f0 3b 3a d3 3d 4a 43 81 bd 44 5e 62 be 2c 8f fe bd
       0.10313841 -0.063116625 -0.22106272 -0.124296516
000100 e9 fd 12 3e 61 9c 8a 3e 9f 6c b9 bd a3 53 a8 3d
       0.14354672 0.27072433 -0.09053921 0.082190774
000110 c3 57 73 3d 2b 2c f7 3c 1d dc 9d 3d 9d 01 24 bd
       0.059409868 0.030172428 0.07707999 -0.0400406
000120 0f 4b 64 3e 82 37 d2 bd 94 e1 b2 3d 04 91 7d 3e
       0.22294258 -0.102644935 0.08734432 0.2476235
000130 fd e0 ff 3d 97 68 6b 3e 38 9c 22 3f fe ae 0a 3f
       0.12494085 0.22989117 0.6351962 0.54173267
000140 45 90 a5 3e e5 8e 11 be db b6 a4 3d 56 fc d3 bd
       0.3233663 -0.14214666 0.080426894 -0.10350864
000150 c9 ca 4b bd 58 36 d8 3c 03 96 b7 3d 7e 53 31 3c
       -0.049753938 0.0263931 0.08964159 0.010823129
000160 d1 ca c2 be 01 ba f8 bc ae 6a 10 3e db 49 a5 3e
       -0.38045362 -0.030362131 0.14103195 0.3228291
000170 04 35 87 3e fe 62 f5 3d ff 50 89 3e 1a cf ed 3d
       0.26407635 0.11981772 0.26819608 0.11611767
000180 8a 76 54 bc c8 fa a7 bd 91 46 1c 3e af 77 f6 3e
       -0.012967715 -0.082021296 0.15261294 0.48138186
000190 bd a7 8b be 73 10 df be 87 08 66 3f 6b 58 d5 3c
       -0.27276412 -0.43567237 0.8985676 0.026043138
0001a0 97 46 c1 be 1a ce 07 3f f2 11 0a 3e 0c 65 59 be
       -0.37749168 0.5304886 0.13483408 -0.21229953
0001b0 79 ec 17 3d 1a 78 2c be 1c 51 13 be 32 91 00 3e
       0.037090752 -0.1684269 -0.1438641 0.12555388
0001c0 32 46 81 bd 82 a0 69 3c 4d 02 9f 3d 31 e6 aa 3d
       -0.06312217 0.014259459 0.07764111 0.08344687
0001d0 e9 d1 61 3d bd a3 37 3e 4c 54 98 3e 5d f6 f7 3d
       0.055131827 0.17933555 0.29751813 0.12107537
0001e0 be af ff 3c 8b f8 9a 3e 49 ad e2 3d ea 5a 99 bd
       0.03121173 0.30267748 0.11068208 -0.074880436
0001f0 0d f9 1a be c9 6d 0c 3e d5 f4 0f be f0 36 62 be
       -0.15134068 0.13713755 -0.1405824 -0.2209127
000200 4b c6 b0 be 35 41 97 3d b6 ae 59 be e3 61 78 be
       -0.34526286 0.07385484 -0.21258053 -0.24256091
000210 99 ee 7f 3e f9 1d b9 3d 1c ea 31 be 2a e2 6d 3e
       0.24993362 0.0903892 -0.17374462 0.23230806
000220 a9 23 41 be ee df 33 bf 56 1f 1d 3f ef 5f 03 3d
       -0.1886126 -0.70263565 0.6137594 0.03207391
000230 2b 5b 7b be f2 c8 82 3e 06 d8 39 3e fa ea 7a be
       -0.24546497 0.25543934 0.18148813 -0.24503699
000240 bb 85 cb be 40 74 f7 3d 38 53 dc 3d 6e 1a 05 bf
       -0.39750466 0.1208272 0.1075806 -0.51993454
000250 c2 16 ec 3c 27 6b 0b 3f 76 2e a9 be 78 64 8e 3d
       0.028819446 0.54460377 -0.3304326 0.06952757
000260 2e 18 15 3f 23 9c 7a bd 37 15 bf 3d 5b dc b3 3d
       0.5824002 -0.06118406 0.09330218 0.08782264
000270 b6 10 05 be a2 7f 28 bd e9 69 ef 3c fa 61 96 3d
       -0.12994656 -0.041137345 0.029225307 0.07342906
000280 b5 13 ab bd 17 54 4a 3d d8 31 26 3e 30 ae 9e bd
       -0.08353368 0.0493966 0.16229951 -0.077480674
000290 c1 ec 01 be 08 2a e0 3d 7f 2e 91 be cf a3 97 be
       -0.1268797 0.10945517 -0.28355786 -0.29617164
0002a0 7c f5 8c 3d 71 32 c5 bd 65 7b 28 be 62 99 21 3e
       0.0688276 -0.096287616 -0.16453321 0.15781167
0002b0 d0 d2 9e bd d6 0c 28 be cb 15 99 3e e5 e9 dc 37
       -0.07755053 -0.16411147 0.2989944 2.633496e-05
0002c0 7f 72 83 be 3c e5 00 3f 05 5f 21 3e 06 a5 03 3e
       -0.2567329 0.50349784 0.15758903 0.1285592
0002d0 d1 88 a8 be c0 be b8 be 05 8e 6c be 2a 39 6f be
       -0.32916883 -0.3608303 -0.23101051 -0.2336165
0002e0 87 34 a1 be 7b 3c 3c be 5c 36 1a 3c 25 e6 84 be
       -0.31485388 -0.18382446 0.009412374 -0.25956836
0002f0 64 5b a5 be f7 2b 4b be fd f7 6c be 8d b9 a2 be
       -0.32296288 -0.1984099 -0.23141475 -0.3178219
000300 08 5f 14 3b 89 03 82 bd 79 e8 bc bd fb bd 56 3d
       0.002263965 -0.063483305 -0.09224028 0.052427273
000310 4e dd 1c 3d fe 70 11 3e 70 e1 bb bc 6c 26 6a bd
       0.03829699 0.1420326 -0.022934645 -0.05716555
000320 d2 64 b3 be 28 2e 12 3e 3e c3 79 be 02 f1 2f be
       -0.35037857 0.1427542 -0.24390885 -0.17181781
000330 81 7c ae 3d 9d 6e 0f be 5f 00 43 be fc 77 fb bd
       0.08519841 -0.1400704 -0.1904311 -0.122787446
000340 5f 18 78 3e 26 ad b3 3e 66 42 69 3d 7a ba 0d 3e
       0.24228047 0.3509304 0.056948088 0.13840666
000350 a0 ef b3 3e 9d 93 bf bd be 2b 23 be 2a 90 46 bd
       0.35143757 -0.09354327 -0.15934655 -0.04847733
000360 ae be 96 be 6c e3 a2 be 60 a1 34 be a2 ad 78 be
       -0.29442352 -0.31814134 -0.17639685 -0.24284986
000370 3f 33 04 be ad bb 01 bd b2 c0 b3 bc 25 10 53 3e
       -0.12910174 -0.031673122 -0.02194247 0.20611627
000380 10 b0 09 3e 47 d9 d7 3e 73 1b 19 bc 5d 7e 46 be
       0.13446069 0.42157957 -0.009344923 -0.19384141
000390 56 f7 fc 3e 01 19 93 3d bb 2d 19 be 9e 5f f5 ba
       0.49407452 0.071825035 -0.14958851 -0.0018720513
0003a0 01 a9 ec bd ed c5 2d be 01 e2 96 3c db 11 15 3e
       -0.115556724 -0.16970034 0.018418314 0.14557593
0003b0 a5 22 4c be 86 86 00 3f 33 46 11 be 71 f2 5e be
       -0.19935091 0.50205266 -0.14186935 -0.21772172
0003c0 c3 73 09 3f 44 ea 15 3e ba 7d a8 be eb 6e 6e 3d
       0.53692263 0.14640146 -0.32908422 0.05821125
0003d0 6c c8 94 3e dc 17 e6 3e ed 5c 44 3e 43 eb 38 3e
       0.2905916 0.44940078 0.19176073 0.18058495
0003e0 f5 78 9d 3e 99 81 25 be 5f f0 3d be cf a6 1b 3e
       0.30756345 -0.16162719 -0.18548726 0.15200351
0003f0 ff 87 31 3e ca 0d c1 3e bf 17 eb 3e 50 2b ab 3c
       0.17337035 0.37705833 0.45916554 0.020894676

convblock3.2.weight f4 [32]
000000 a3 e3 d1 3f 00 84 bc 3f f1 53 b9 3f 4d 9b e9 3f
       1.6397594 1.4727783 1.4478742 1.8250519
000010 4b 3c f7 3f 42 15 0a 40 0d 54 d4 3f f3 ed 01 40
       1.9315275 2.1575475 1.658815 2.0301483
000020 fa 59 de 3f 1e 93 d0 3f 37 85 e0 3f 4d ca f9 3f
       1.7371209 1.6294897 1.7540654 1.9514862
000030 81 66 c9 3f 4f 2e e0 3f 3c 88 c5 3f 6a bc 00 40
       1.5734407 1.7514132 1.54322 2.0115
000040 35 e2 da 3f 5e 24 c0 3f b8 9e 01 40 91 cc cc 3f
       1.7100283 1.5011098 2.0253124 1.5999929
000050 bb 61 cf 3f 6d 22 e5 3f e8 d2 e0 3f a8 81 c3 3f
       1.62017 1.7901131 1.7564363 1.5273943
000060 07 bf d0 3f c8 67 a8 3f 75 52 e6 3f ad 62 b5 3f
       1.6308297 1.3156672 1.7993914 1.4170738
000070 37 c7 eb 3f b0 e4 a4 3f 23 75 f0 3f 42 25 f9 3f
       1.842017 1.288229 1.8785747 1.9464495

convblock3.2.bias f4 [32]
000000 a7 5b 4c 3d 25 03 25 3d 22 e1 ee 3e 6f 59 c4 bd
       0.049892094 0.040286202 0.46656138 -0.095873706
000010 e4 2e a7 3e 67 6c 2b bf f7 ff 1a 3e 97 42 06 bd
       0.32652962 -0.66962284 0.15136705 -0.03277835
000020 6f 1a 95 3e 9f a9 c9 be 02 91 be be cf e3 f7 3e
       0.2912173 -0.39387223 -0.37220007 0.48415992
000030 f2 77 1e bf bb e6 59 bf 49 93 a2 3e 8a 5c 45 3f
       -0.6190177 -0.8511769 0.31752995 0.7709433
000040 19 be 9f 3e f1 86 f2 3e 0a 4e d6 3e 07 5e 76 3e
       0.3119972 0.47368577 0.41856414 0.24059306
000050 95 7c 29 be 3b 8b a0 be 19 78 37 3e 78 8c 16 be
       -0.1655143 -0.31356224 0.17916907 -0.14702022
000060 cb 2f 29 3f 09 e4 4d 3f 51 93 95 be 3d 52 e9 be
       0.6608855 0.8042608 -0.29213956 -0.45570555
000070 ee 0d a4 3d e5 49 9d be a7 4d 11 bf 69 55 0a 3e
       0.080104694 -0.3072044 -0.56759113 0.13509144
